code/training_results/wv3_8/old/netG_wv3_8_epoch_1_1300.pth (torch, 735090 bytes, 72 tensors)

blk_9_16_3.0.weight f4 [30, 9, 3, 3]
0	0xbc0fe6a7	-0.008783019
1	0xbcb254d1	-0.02176896
2	0x3d01aa5c	0.031656608
3	0xbaf1e36a	-0.0018454615
4	0x3ca019a9	0.019543486
5	0x3c368498	0.011140011
6	0xbcac0627	-0.020999027
7	0xbc391eda	-0.0112988595
8	0xbcafe90f	-0.021473436
9	0xbda15181	-0.07876874
10	0xbab0dc2c	-0.0013493351
11	0xbd3377c3	-0.043815386
12	0xbce8bcd3	-0.02841035
13	0xb95cb183	-0.00021046963
14	0x3be78003	0.0070648207
15	0xbd215ba8	-0.03939405
16	0xbc1a07c7	-0.009401268
17	0xbc91dcfd	-0.01780557
18	0x3e1e3992	0.15451649
19	0x3a837a47	0.0010030948
20	0x3d92a863	0.071610235
21	0x3cf5a374	0.029985167
22	0x3d91ddb1	0.071223624
23	0xbd61705e	-0.055038802
24	0x3d0e999b	0.03481446
25	0x3a11659b	0.00055464514
26	0x3d269fae	0.040679626
27	0xbc43189e	-0.011907725
28	0x3d760f39	0.06007311
29	0xbcfbef86	-0.030753862
30	0x3be004c9	0.006836508
31	0x3c38419c	0.011246111
32	0x3c0e4b4e	0.008684946
33	0xbc1490ab	-0.009067695
34	0x3c334147	0.010940856
35	0xbcabf3aa	-0.020990212
36	0xbd9a5103	-0.07534983
37	0x3ab32a38	0.0013669198
38	0xbd377eea	-0.04479877
39	0xbd0cd456	-0.034382187
40	0xbd3747ed	-0.04474633
41	0xbcd7a74f	-0.026324896
42	0xbd95a503	-0.07306864
43	0xba6c77e5	-0.0009020551
44	0xbd95975b	-0.073042594
45	0xbd2c0460	-0.04199636
46	0xbceb1086	-0.028694402
47	0xbc4ec585	-0.0126203345
48	0xbc341a9b	-0.010992671
49	0xbce774e3	-0.028253978
50	0x3cb2c369	0.021821694
51	0x3b104214	0.0022012042
52	0xbccf7215	-0.025322953
53	0x3c801837	0.015636547
54	0xbc96a466	-0.018388938
55	0x3c8496d7	0.016185207
56	0xbd23001b	-0.039795022
57	0x3c9e48cc	0.019321822
58	0x3d75732f	0.0599243
59	0xbb010d5f	-0.0019691808
60	0x3d10525f	0.035234805
61	0x3b858d63	0.0040756925
62	0x3d193326	0.037402295
63	0x3dba7e4c	0.091061205
64	0xbc9770cf	-0.018486409
65	0xbd9e3ef2	-0.077268496
66	0xbbae72ad	-0.005323729
67	0x3c0dd4a0	0.008656651
68	0x3bddd95e	0.006770297
69	0x3db8331b	0.089941226
70	0x3c6ba243	0.014381948
71	0x3d3164c5	0.043308992
72	0xbd100fd5	-0.03517135
73	0x3db32d5b	0.08748885
74	0xbdab5119	-0.083650775
75	0xbc4e45a6	-0.012589848
76	0x3e644a1d	0.22293897
77	0xbd826bfb	-0.06368252
78	0x3dc9b4e5	0.09848956
79	0x3e08c8a1	0.13357784
80	0xbc822079	-0.015884625
81	0x3d4fe895	0.050758917
82	0x3ba1ba78	0.004935559
83	0x3a65087a	0.000873692
84	0xbd3fe224	-0.046846524
85	0x39f66b6b	0.0004700081
86	0xbd19a14e	-0.037507348
87	0xbc2f2887	-0.010690815
88	0xbcdcaff7	-0.026939375
89	0xbce74476	-0.028230887
90	0x3dc3664b	0.09540995
91	0x3d801d28	0.06255561
92	0x3d1d253b	0.038365584
93	0x3d86e06a	0.06585772
94	0x3d4dfb24	0.050288334
95	0x3d310685	0.043219108
96	0x3daae8f4	0.083452135
97	0x3d92a15c	0.07159683
98	0x3c98ff22	0.018676344
99	0xbccdcfd8	-0.025123522
100	0x3d05109d	0.032486547
101	0xbdb6cd01	-0.0892582
102	0xbc8fd345	-0.017556796
103	0x3dee8088	0.11645609
104	0xbdaa7505	-0.08323101
105	0xbbc7f604	-0.0061023254
106	0xbcbec13d	-0.023285503
107	0x3d1462e7	0.036227133
108	0xbaaf0fc2	-0.0013356137
109	0x3a5ba3e5	0.0008378609
110	0xbcea1a77	-0.028577073
111	0x3c846126	0.016159605
112	0x3becd84b	0.0072279326
113	0x3d2c439d	0.04205667
114	0xbc0d8667	-0.008638001
115	0x3bfe33c4	0.007757636
116	0xbd2eb77d	-0.042655457
117	0xbcd9dfcd	-0.026595974
118	0xbd66d354	-0.056353882
119	0xbd3d549f	-0.04622328
120	0xbd146da3	-0.03623737
121	0xbcf96d0c	-0.030447505
122	0xbd69d109	-0.057084117
123	0xbd0bd008	-0.03413394
124	0xbd474e20	-0.04865849
125	0xbd500dc9	-0.050794397
126	0x3dd60ed3	0.10452046
127	0x3d3df2d3	0.046374153
128	0x3d0b0fb1	0.03395051
129	0x3de45f63	0.11151006
130	0x3d44e403	0.04806901
131	0x3d7907a7	0.060798313
132	0x3da1b450	0.0789572
133	0x3d3928d4	0.045204952
134	0x3c924eee	0.017859902
135	0x3cb1500d	0.021644616
136	0x3d68e2ff	0.056857105
137	0xbd1e2cd2	-0.038616963
138	0x3ca66f1e	0.020316657
139	0x3d96f8c5	0.07371668
140	0xbd1438d5	-0.03618701
141	0xbcbda131	-0.023148151
142	0xbcaed953	-0.021343863
143	0x395fcf32	0.00021344124
144	0xbd5ef2fb	-0.054430943
145	0x3d7ce4d8	0.06174168
146	0xbdd21158	-0.10257214
147	0xbd235059	-0.039871547
148	0x3d8221e8	0.06354123
149	0x3d22105a	0.039566375
150	0x3dbcbfee	0.09216295
151	0x3d2afde6	0.041746043
152	0xbd5f2ab3	-0.05448408
153	0xbdb9a926	-0.09065466
154	0xbdda4761	-0.10658146
155	0x3dc2d318	0.09512919
156	0x3d7933f9	0.06084058
157	0x3c635abb	0.013876612
158	0xbd93144e	-0.07181607
159	0x3d9475f0	0.07249057
160	0x3d28e2c3	0.04123188
161	0x3df4ba72	0.11949624
162	0x3c55c40e	0.013047231
163	0x3cf5f26e	0.030022826
164	0x3d1e54d4	0.038655117
165	0x3da137b6	0.07871954
166	0x3cdc1a2d	0.02686795
167	0x3c39614e	0.011314703
168	0x3b871dbd	0.004123418
169	0xbca76959	-0.020435976
170	0x3d346900	0.04404545
171	0xbb9d6f07	-0.0048044953
172	0x3c46825a	0.012116039
173	0x3c817f0f	0.015807657
174	0xbd2f532e	-0.042803936
175	0xbca11fd3	-0.019668495
176	0xbbfd8db3	-0.007737839
177	0xbbf665b6	-0.007519449
178	0x3bfd0d37	0.0077225226
179	0x3b6c2147	0.0036030577
180	0x3da4998b	0.080370985
181	0x3c301a1d	0.010748413
182	0x3d58b7da	0.05290971
183	0xbca51d16	-0.02015547
184	0x3d6616de	0.05617415
185	0x3cefb842	0.029262666
186	0x3c54bdf9	0.012984746
187	0xbcf99e84	-0.030471094
188	0xbd8652e4	-0.06558779
189	0x3d1f2d15	0.038861353
190	0x3d487100	0.04893589
191	0x3d6df4d1	0.058094803
192	0x3d420d85	0.047376174
193	0x3d5d03bc	0.05395864
194	0x3d946b2d	0.07247005
195	0x3cb94159	0.022614168
196	0x3ce860f2	0.02836654
197	0x3d3cbae1	0.04607666
198	0xbd2262a0	-0.039644837
199	0xbd244035	-0.040100295
200	0xbbdf3f7f	-0.0068129892
201	0xbc815345	-0.015786776
202	0x3c0706ca	0.008241365
203	0xbd6f1edc	-0.05837904
204	0xbcd41c02	-0.025892261
205	0xbc516329	-0.012779989
206	0xbc96f79f	-0.018428622
207	0x3d304255	0.04303201
208	0xbb8bd8cd	-0.004267788
209	0x3c7e7340	0.015530407
210	0x3ce8840d	0.02838328
211	0xbc1053e7	-0.008809066
212	0xbd0188f5	-0.031624753
213	0x3c3e916c	0.011631351
214	0x3c13ce38	0.009021334
215	0x3caa1660	0.020762622
216	0x3d786774	0.060645536
217	0x3c8e0721	0.017337384
218	0x3d4ccfbe	0.050002806
219	0x3dd73e6e	0.105099544
220	0x3cb4c5cc	0.022066973
221	0x3d97faf8	0.07420915
222	0x3cd5d3d7	0.02610199
223	0x3db2a610	0.0872308
224	0xbc92638f	-0.017869739
225	0xbcfc5e09	-0.030806558
226	0xbcd4f76c	-0.025996886
227	0xbb9d7a3f	-0.0048058326
228	0xbc27f7e9	-0.0102519775
229	0xbd540404	-0.051761642
230	0xbe0331cc	-0.12811965
231	0xbc728890	-0.014803067
232	0x3d91f3c3	0.07126572
233	0xbe366855	-0.17813237
234	0x3dad1722	0.08451678
235	0xbd5219fa	-0.051294304
236	0x3e157668	0.1459595
237	0x3d86d55a	0.06583662
238	0xbb884edb	-0.004159791
239	0xbda88602	-0.08228685
240	0x3dbff438	0.09372753
241	0xbe09ad96	-0.13445124
242	0xbdd27014	-0.102752835
243	0x3c390773	0.01129328
244	0x3ad56eef	0.0016283671
245	0x3cc719f8	0.024304375
246	0x3d1d9704	0.038474098
247	0x3c9d2174	0.01918099
248	0x3d47e9a5	0.048806805
249	0x3d089113	0.03334148
250	0x3d991ff4	0.07476798
251	0x3cbb92e3	0.02289719
252	0xbd49c70f	-0.049262103
253	0xbd4319e6	-0.04763212
254	0xbdb6c39a	-0.08924027
255	0x3cc377ca	0.02386083

blk_9_16_3.0.bias f4 [30]
0	0x3cc6704a	0.024223465
1	0x3d7a073a	0.061042048
2	0x3d8dcd3e	0.069239125
3	0xbd0ef41f	-0.03490078
4	0xbd9b8a92	-0.075947896
5	0xbc83894b	-0.016056677
6	0x3d91f233	0.07126274
7	0x3c2db0ca	0.010601232
8	0x3df4db63	0.11955907
9	0x3dea37c2	0.11436416
10	0x3d8495ff	0.06473922
11	0x3d328734	0.04358597
12	0x3bf137b7	0.007361378
13	0x3d18edad	0.03733604
14	0x3c90219c	0.017594151
15	0xbdd13423	-0.102150224
16	0x3d7e55e6	0.062093638
17	0x3d610ece	0.05494576
18	0x3c028fb8	0.0079688355
19	0xbd043c8e	-0.032284312
20	0x3d87e813	0.066360615
21	0x3d73aac1	0.059489015
22	0x3dd7d78d	0.1053916
23	0xbc063684	-0.0081917085
24	0x3ce48047	0.027893199
25	0xbdfe0a59	-0.124043174
26	0xbb3769de	-0.0027986686
27	0x3c06b994	0.008222956
28	0x3e12f0ca	0.14349666
29	0x3cdc0ae7	0.026860667

blk_8_16_3.0.weight f4 [30, 8, 3, 3]
0	0xbe0b26e2	-0.13589051
1	0xbd895823	-0.06706264
2	0x3daaf4c5	0.08347467
3	0xbd4a69e0	-0.049417377
4	0x3c8443a0	0.016145527
5	0x3ccc2650	0.024920613
6	0xbd3bebaa	-0.045879044
7	0x3c4039a0	0.011732489
8	0x3c68cdb2	0.014209198
9	0xbcffae63	-0.031211084
10	0xbd1e66d0	-0.03867227
11	0xbc6cd907	-0.01445604
12	0x3cd5a5e0	0.026080072
13	0xbddcfc2c	-0.107902855
14	0x3c8bd63d	0.01706993
15	0xbd7ea1dd	-0.062166084
16	0xbe21f971	-0.1581781
17	0x3c988ac7	0.018620862
18	0xbb8d2ea2	-0.0043085376
19	0xbd9c32bb	-0.076268636
20	0xbceec73d	-0.029147739
21	0xbdce6118	-0.10077113
22	0xbc4902ab	-0.0122687025
23	0xbd5f41c9	-0.054506097
24	0x3dd17c1b	0.10228749
25	0xbd628a31	-0.05530757
26	0x3dbb598e	0.091479406
27	0x3d3ebf3c	0.046569094
28	0xbdf336c8	-0.11875683
29	0xbd12e9ba	-0.03586743
30	0xbdb82afd	-0.08992574
31	0xbdc209d1	-0.094745286
32	0x3cd995fc	0.026560776
33	0xbdc2b39b	-0.09506913
34	0xbdcd8cdc	-0.100366324
35	0xbc2929c9	-0.010324904
36	0xbd3c875c	-0.046027526
37	0x3d712ac5	0.05887868
38	0x3cdab928	0.026699618
39	0x3def598f	0.11687004
40	0xbdc44ec6	-0.09585337
41	0xbd86d18f	-0.06582939
42	0x3c8d6551	0.017260225
43	0x3de111ef	0.10989749
44	0x3d6831b0	0.05668801
45	0x3d201609	0.039083514
46	0xbdb8755e	-0.09006761
47	0xbda13e31	-0.0787319
48	0xbe2f0d26	-0.1709486
49	0x3d5807d9	0.05274186
50	0x3ca49956	0.020092648
51	0x3d4c1dd9	0.049833152
52	0xbc5ac7f9	-0.013353341
53	0x3dcde2e8	0.100530446
54	0xbdfe3db4	-0.12414113
55	0xbe2a9a6b	-0.16660468
56	0xbe1a250a	-0.15053192
57	0xbd5e8ee1	-0.05433548
58	0xbe15e04c	-0.14636344
59	0xbe1a956a	-0.1509606
60	0xbe09a9af	-0.13443635
61	0xbe0a7c0e	-0.13523886
62	0xbd50c078	-0.050964803
63	0xbdd213ee	-0.102577075
64	0x3d240933	0.040047836
65	0xbdb5c4bb	-0.08875414
66	0xbe140763	-0.14455943
67	0x3db3fce7	0.08788472
68	0x3dafd285	0.08585075
69	0xbcb4fda7	-0.022093607
70	0x3d12baf8	0.03582284
71	0xbd2a6e1e	-0.041608922
72	0x3da345e4	0.07972315
73	0xbccf156a	-0.025278766
74	0x3dfb26d7	0.122632675
75	0xbb888b43	-0.004166992
76	0xbd883af6	-0.06651871
77	0x3dc9edec	0.09859833
78	0x3dd9f1e3	0.10641839
79	0x3d338828	0.04383102
80	0xbdbac296	-0.091191456
81	0xbe02a583	-0.1275845
82	0x3d8dd4af	0.06925332
83	0xbd8d81fb	-0.069095574
84	0x3c0c0aa8	0.0085474625
85	0xbcb43e60	-0.022002399
86	0xbc80af24	-0.015708514
87	0xbe03042f	-0.12794565
88	0xbc4075a1	-0.011746795
89	0xbda451c0	-0.08023405
90	0x3d828135	0.063723005
91	0x3d5c97ec	0.05385582
92	0xbd7b3da4	-0.061338082
93	0x3cac5529	0.021036701
94	0x3d6b90f9	0.057511304
95	0xbd68d0ab	-0.056839626
96	0x3d34708a	0.044052638
97	0x3dd00ae0	0.10158324
98	0xbdc18515	-0.094492115
99	0x3d0c4fbf	0.03425574
100	0xbd019f24	-0.03164591
101	0xbd1baf6a	-0.038009085
102	0x3cf705d9	0.030154156
103	0xbe1d31dc	-0.15351051
104	0xbded782f	-0.11595189
105	0x3d82a22c	0.06378588
106	0x3d6a0a5b	0.057138782
107	0x3dfad9fd	0.12248609
108	0x3dd380fc	0.10327336
109	0x3d90dbd4	0.07073179
110	0x3db7e5e7	0.08979397
111	0x3da6a619	0.08137149
112	0xbdc9840e	-0.098396406
113	0xbd86d50c	-0.06583604
114	0xbcaaa783	-0.020831829
115	0x3d1d018a	0.038331546
116	0x3d053ff8	0.03253171
117	0xbe15f746	-0.14645109
118	0xbe0ede19	-0.13951911
119	0xbab7f157	-0.0014033717
120	0xbd988387	-0.07446962
121	0xbc88ede0	-0.01671499
122	0x3d17e52d	0.037083793
123	0x3da39bbe	0.0798869
124	0x3d88bd2a	0.06676705
125	0x3dcc9986	0.0999022
126	0x3c7e3bca	0.0155171845
127	0x3c341a57	0.010992608
128	0x3dffce02	0.12490465
129	0xbd98ff0d	-0.07470522
130	0x3da8dfaa	0.082457855
131	0xbdabc44a	-0.083870485
132	0x3dd62ffb	0.1045837
133	0x3ca033eb	0.019556006
134	0x3c08924d	0.008335662
135	0x3d4fbbf7	0.050716367
136	0xbd12832a	-0.03576962
137	0xbd900c94	-0.07033649
138	0xbda04750	-0.07826102
139	0xbe17be33	-0.14818649
140	0xbd63ea2c	-0.055643246
141	0x3dd9e83b	0.106399976
142	0x3d281ba2	0.041041978
143	0x3d2e3c2d	0.042537857
144	0xbd09841d	-0.03357326
145	0xbc278357	-0.010224185
146	0xbca3a56d	-0.019976342
147	0x3d16124e	0.03663855
148	0xbc80d01c	-0.015724234
149	0xbdd4f2ce	-0.10397874
150	0x3c41e112	0.011833446
151	0xbe0b0721	-0.13576938
152	0xbda87a16	-0.08226411
153	0x3d5d751a	0.054066755
154	0x3dd75fb5	0.105163015
155	0x3dd9f00f	0.10641491
156	0xbd2fd45a	-0.042927124
157	0x3c02ab90	0.007975474
158	0xbdc4ae53	-0.09603562
159	0xbc694f0c	-0.014240038
160	0xbbe0f29e	-0.0068648597
161	0xbdf01955	-0.11723582
162	0x3d686de5	0.05674543
163	0x3c6147e4	0.01375005
164	0x3d7549c0	0.059884787
165	0xbca52c9b	-0.020162871
166	0x3cb9b906	0.022671234
167	0xbdd3f439	-0.10349316
168	0x3db64eb3	0.089017294
169	0x3d0080ce	0.031372838
170	0xbdc95a08	-0.09831625
171	0x3d908c40	0.070580006
172	0xbd6467a1	-0.05576289
173	0xbc5a8866	-0.013338184
174	0x3da3f55a	0.080057815
175	0x3d95195a	0.07280226
176	0xbcdcbce3	-0.026945537
177	0x3c592319	0.013252997
178	0xbb425510	-0.0029652752
179	0x3abfdd67	0.0014638127
180	0x3b1fdfca	0.0024394863
181	0x3c85797f	0.016293285
182	0xbd65fcde	-0.056149356
183	0x3d66a118	0.056305975
184	0xbe0c0854	-0.13675052
185	0x3d36acee	0.044598512
186	0xbe2ca664	-0.16860348
187	0xbe22cb7f	-0.1589794
188	0xbd9e97f7	-0.07743829
189	0xbd854463	-0.06507184
190	0x3d34d727	0.044150498
191	0x3d3201a7	0.043458607
192	0x3da6b082	0.08139135
193	0x3df500c7	0.11963039
194	0x3c8c0943	0.01709426
195	0xbddefc03	-0.10887911
196	0x3d51c7a5	0.051215786
197	0xbd8daf93	-0.06918254
198	0x3e13bae3	0.1442676
199	0x3e03bbec	0.12864655
200	0xbd95ec9e	-0.07320522
201	0xbd602760	-0.05472505
202	0x3dd10448	0.10205895
203	0x3dc63fac	0.09680113
204	0x3dc8fd20	0.09813905
205	0x3d3f6bfd	0.046733845
206	0xbd990d68	-0.0747326
207	0x3e12c057	0.14331184
208	0xbcbf5ecf	-0.023360638
209	0x3d2f37d7	0.042777862
210	0x3dbba9a0	0.09163213
211	0xbd5d5ff5	-0.05404659
212	0x3def7870	0.116928935
213	0xbdcffde6	-0.10155849
214	0xbde1cc1d	-0.1102526
215	0xbe0032ce	-0.1251938
216	0xbd87da2b	-0.06633409
217	0x3da379a6	0.07982187
218	0x3daebe66	0.08532409
219	0xbb51241c	-0.0031912392
220	0xbdc78014	-0.09741226
221	0xbd019f3a	-0.03164599
222	0x3d4193c1	0.04726005
223	0x3d686fbc	0.056747183
224	0xba3c7835	-0.0007189543
225	0x3db6cb85	0.08925537
226	0x3d05d0b0	0.032669723
227	0x3def1b09	0.116750784
228	0x3d124812	0.035713263
229	0x3e0a5dbc	0.1351232
230	0x3d034fd2	0.032058544
231	0x3d15abaa	0.036540665
232	0x3dfd8c26	0.12380247
233	0x3d0eadb3	0.03483362
234	0x3da53d8a	0.08068378
235	0x3c58cd6b	0.013232569
236	0xbe06d188	-0.13165867
237	0xbdf6b295	-0.120457806
238	0x3e05b771	0.13058259
239	0x3d2e2b09	0.04252151
240	0x3df27f69	0.11840708
241	0x3d8587b4	0.06520024
242	0xbddb4ce5	-0.10708026
243	0xbd3a7870	-0.045525014
244	0xbd3fa374	-0.04678674
245	0x3e1a56fe	0.15072247
246	0xbda13c85	-0.07872871
247	0xbe0eb63e	-0.13936707
248	0xbd56d17e	-0.05244588
249	0xbcdea061	-0.027176084
250	0x3d185f09	0.037200008
251	0x3d673de5	0.05645551
252	0xbdde5a7a	-0.10857101
253	0x3d37b811	0.044853274
254	0x3dabebde	0.083945975
255	0x3c3b65ef	0.011437877

blk_8_16_3.0.bias f4 [30]
0	0x3c6eef70	0.014583454
1	0x3c686d1e	0.014186172
2	0x3c3d106c	0.01153956
3	0x3cd3d070	0.025856227
4	0xbd6656e9	-0.056235228
5	0xbd43f7e3	-0.047843825
6	0xbd2639a2	-0.040582307
7	0x3c92da66	0.017926406
8	0x3cce555d	0.025187189
9	0xbcb72807	-0.022357954
10	0xbcc94f39	-0.02457391
11	0x3c50290c	0.012705099
12	0x3d9bf95c	0.07615921
13	0xbd8e9b4e	-0.06963216
14	0xbc1a3363	-0.009411666
15	0x3d630c33	0.055431556
16	0xbda8ac88	-0.08236033
17	0xbd697eda	-0.05700574
18	0x3da01707	0.07816892
19	0x3c2ac210	0.010422245
20	0x3d8bd82b	0.0682834
21	0x3ccda846	0.025104653
22	0xbd21ecf3	-0.039532613
23	0x3dde0745	0.1084123
24	0x3b5d750d	0.0033791692
25	0xbc162283	-0.009163502
26	0x3d9fcc40	0.078026295
27	0x3d718257	0.058962192
28	0xbcfc75d7	-0.03081791
29	0xbccff0f9	-0.02538346

blk2.0.weight f4 [30, 60, 3, 3]
0	0xbd476940	-0.04868436
1	0xbd5ec67e	-0.054388516
2	0x3ce6ca49	0.028172629
3	0x3e30e0de	0.1727328
4	0x3db8f260	0.09030604
5	0xbdb07a39	-0.08617062
6	0xbe2b40df	-0.16723965
7	0xbe688b2a	-0.22709337
8	0xbdb222e5	-0.08698062
9	0xbdb3e651	-0.08784164
10	0xbda8c5be	-0.08240841
11	0xbe0df0d5	-0.13861401
12	0xbd12bd38	-0.035824984
13	0x3c915ee7	0.017745448
14	0xbde8cc44	-0.113670856
15	0xbe72aeb9	-0.23699464
16	0xbe2479dd	-0.16062112
17	0xbe82ae7f	-0.25523755
18	0x3c768eb6	0.015048673
19	0x3d9e9d86	0.07744889
20	0x3c807d69	0.0156848
21	0x3c9da2de	0.0192427
22	0xbe097e17	-0.13427006
23	0xbccb8807	-0.024845136
24	0x3cc84e0d	0.02445128
25	0xbe33834c	-0.17530555
26	0xbcdfb419	-0.027307557
27	0xbdb263ea	-0.08710463
28	0x3b8785f5	0.004135842
29	0xbe82c1ad	-0.25538388
30	0x3ccde493	0.025133407
31	0x3e13b161	0.14423133
32	0x3d9309b4	0.07179585
33	0x3bb4b8d5	0.0055151978
34	0x3c2e2027	0.010627783
35	0xbdc3a1b5	-0.095523275
36	0xbd208ace	-0.039194874
37	0x3a5595a6	0.00081476045
38	0xbd1a4017	-0.037658777
39	0xbc11063e	-0.008851586
40	0x3c8ff08a	0.017570753
41	0xbd0ccc7a	-0.03437469
42	0xbc771d11	-0.015082614
43	0xbd9caaea	-0.07649787
44	0xbd1c502d	-0.0381624
45	0xbd2b38c4	-0.041802183
46	0xbd688f49	-0.056777272
47	0xbbf683de	-0.007523044
48	0x3bd53692	0.0065067494
49	0x3da93267	0.082615666
50	0x3db40baa	0.08791287
51	0x3d3a059b	0.045415502
52	0x3d9e0d91	0.07717431
53	0x3cd8021a	0.02636819
54	0xbbeb5326	-0.007181543
55	0xbcd01b7b	-0.025403729
56	0xbd814e1f	-0.063137285
57	0xbcdf46d1	-0.027255448
58	0x3d66f0ca	0.056381978
59	0xbc3ba707	-0.011453397
60	0x3d1a18a9	0.037621174
61	0x3d1cef85	0.03831436
62	0x3d6a1ea9	0.057158146
63	0xbd0121e3	-0.031526458
64	0xbb345d3c	-0.0027521392
65	0xbcdea92e	-0.02718028
66	0x3dade21c	0.084903926
67	0x3d0126ff	0.03153133
68	0xbda8df51	-0.08245719
69	0x3d67a8a5	0.056557316
70	0xbc6e1a04	-0.01453257
71	0x3cc7d1ff	0.024392126
72	0xbcf30782	-0.029666666
73	0xbd388f47	-0.045058515
74	0xbb74e390	-0.0037367083
75	0xb8a87b20	-8.033798e-05
76	0xbc3609cb	-0.011110733
77	0x3d11d347	0.03560188
78	0xbd6492c9	-0.055804048
79	0x3d95d0b4	0.073151976
80	0x3dbc7941	0.09202815
81	0x3d07a439	0.0331156
82	0xbcaaddda	-0.02085774
83	0xba7fcd73	-0.00097580923
84	0x3bc9d999	0.006159973
85	0x3d0d78f9	0.034539197
86	0xbc6e2216	-0.014534494
87	0x3d33c687	0.043890502
88	0x3d283178	0.041062802
89	0xbcafe071	-0.021469327
90	0x3d260533	0.040532302
91	0x3c7548b6	0.014970949
92	0x3d8905a3	0.06690528
93	0x3d299b45	0.041407842
94	0x3c7b8bdf	0.015353172
95	0x3c01df3b	0.007926757
96	0x3d522bce	0.051311307
97	0xbb86b40c	-0.0041108187
98	0xbc8f740c	-0.01751139
99	0xbc3f9824	-0.011693988
100	0xbc597073	-0.013271439
101	0x3cf53cce	0.02993622
102	0x3c433274	0.011913884
103	0xbb88bb48	-0.0041727163
104	0xbdd1f948	-0.10252625
105	0xbc97b56a	-0.018519122
106	0xbcc5d361	-0.024148645
107	0x3d6f9737	0.05849382
108	0xbb907a1b	-0.0044090874
109	0x3d02a437	0.03189489
110	0x3ce430e6	0.027855348
111	0x3c9ae6eb	0.018908938
112	0xb9e6aaab	-0.00043996176
113	0xbd5371b0	-0.051622093
114	0x3ba6730e	0.0050796336
115	0x3db0ee6c	0.08639225
116	0xbd816eb6	-0.063199446
117	0x3d3fe6e1	0.046851043
118	0x3bdd8570	0.0067602918
119	0x3d3c08da	0.04590688
120	0x3cb1c062	0.02169818
121	0x3dccc784	0.09998992
122	0x3d8c5fe8	0.0685423
123	0x3cad5276	0.021157485
124	0x3d1de7e1	0.038551215
125	0x3d84491b	0.06459256
126	0x3dda15ab	0.10648664
127	0x3b8df207	0.0043318304
128	0x3d3c6b3a	0.046000697
129	0x3d89d77b	0.06730553
130	0x3d32e93b	0.043679457
131	0x3d0acc31	0.03388614
132	0xbca31281	-0.019906284
133	0xbe3e0108	-0.18555081
134	0xbe2d433d	-0.1692018
135	0x3d44720b	0.047960322
136	0xbce07a95	-0.027402202
137	0xbd4680f7	-0.048462834
138	0xbe5297a2	-0.20565656
139	0x3cceeeed	0.025260413
140	0x3d2761be	0.0408647
141	0xbe1c93a6	-0.15290698
142	0x3d1d7c50	0.03844863
143	0x3db182b5	0.086675085
144	0x3d5f9832	0.054588504
145	0xbb3244d8	-0.0027201679
146	0x3bd7ea04	0.006589176
147	0xbe2bb5b8	-0.16768539
148	0xbe9ba016	-0.30395573
149	0x3cfe98a1	0.031078639
150	0xbe192a23	-0.1495748
151	0xbe9a8abf	-0.3018398
152	0x3dda329f	0.106541865
153	0x3c261a92	0.010138171
154	0xbc1b91dc	-0.009495225
155	0xbd3b6fcf	-0.045760926
156	0x3c11edc7	0.008906788
157	0x3d886f86	0.066618964
158	0x3dc837d6	0.09776275
159	0x3ccf8e7d	0.025336498
160	0x3d6d552b	0.05794255
161	0x3db48a77	0.088154726
162	0xbc37f274	-0.011227239
163	0x3c893237	0.016747577
164	0xbc14e364	-0.009087417
165	0x3c470f3e	0.01214963
166	0xbc6d7cdd	-0.014495102
167	0xbbc5b299	-0.0060332534
168	0xbce18e61	-0.027533712
169	0x3dc1057e	0.09424876
170	0xbd047000	-0.032333374
171	0x3afa02e5	0.0019074349
172	0x3ae8a093	0.001774805
173	0xbd06c708	-0.032904655
174	0xbd0bd2e9	-0.034136686
175	0x3dcf243c	0.10114333
176	0x3c375409	0.011189469
177	0xbcf3397a	-0.029690493
178	0x3d9cad5b	0.076502524
179	0xbcb69002	-0.022285465
180	0xbc13f0e5	-0.009029602
181	0xbcc5c7ab	-0.02414306
182	0xbd19e9fd	-0.037576664
183	0xbcdbdb4a	-0.026837964
184	0x3cccc6a4	0.024997063
185	0xbcf82723	-0.0302921
186	0xbc9b54da	-0.018961359
187	0xbcfa4e50	-0.03055492
188	0xbd4c63b6	-0.04989978
189	0xbd067294	-0.032824114
190	0x3d48a2ee	0.048983507
191	0x3da32ed5	0.07967917
192	0xbd2a8aa1	-0.041636113
193	0x3ce16307	0.02751304
194	0x3dee070c	0.11622438
195	0xbdda5ad0	-0.10661852
196	0x3cf165b3	0.02946744
197	0x3db51d62	0.08843495
198	0x3d6ad863	0.05733527
199	0xbd6bbd9e	-0.05755388
200	0xbdc2b88f	-0.09507858
201	0x3d131f77	0.03591868
202	0x3cf8c9ac	0.030369602
203	0xbe54aea2	-0.20769742
204	0xbcbb1063	-0.022834962
205	0x3da89187	0.08230882
206	0x3db00ff6	0.08596794
207	0x3c80e1d5	0.015732685
208	0xbc4be39f	-0.012444406
209	0xbca1c0ec	-0.019745313
210	0x3c23174a	0.009954283
211	0xbc46a212	-0.0121236015
212	0x3beb1dcc	0.007175183
213	0xbc15446e	-0.009110553
214	0xbd2b288e	-0.041786723
215	0xbd436851	-0.047706906
216	0x3b533ff6	0.0032234169
217	0x3c9afd53	0.018919623
218	0x3c88c6e0	0.016696393
219	0x3d8d85e9	0.06910307
220	0xbd03c325	-0.032168526
221	0x39aed261	0.0003334461
222	0x3d0afdeb	0.03393356
223	0xbc731a69	-0.01483784
224	0xbd6983d3	-0.057010483
225	0xbb14f843	-0.0022730983
226	0x3dc5a867	0.09651261
227	0x3d159758	0.036521286
228	0xbcbdf17d	-0.02318644
229	0x3cc7c266	0.024384689
230	0x3ce2e3ee	0.027696576
231	0xbce03f2f	-0.027373878
232	0x3d446668	0.047949225
233	0xbc184c16	-0.009295484
234	0x3d79382a	0.060844578
235	0xbc4cd598	-0.012502097
236	0xbd1a12f4	-0.03761573
237	0xbd16bea4	-0.036802903
238	0x3c30d1cc	0.010792207
239	0x3c038f64	0.008029792
240	0x3cbff97c	0.023434393
241	0x3d0dffab	0.034667652
242	0x3caac367	0.020845128
243	0xbc7147c3	-0.014726582
244	0xbc515dc0	-0.012778699
245	0xbc67162d	-0.014104408
246	0xbc7140fa	-0.014724964
247	0x3c58d061	0.013233275
248	0xbc43182a	-0.011907617
249	0xbcaafc51	-0.020872267
250	0xbcdc7d2d	-0.026915157
251	0x3c6986d4	0.014253337
252	0xbc115c5c	-0.008872118
253	0x3cab8bfe	0.020940777
254	0x3d3f188c	0.04665427
255	0x3c8f4bec	0.017492257

blk2.0.bias f4 [30]
0	0x3bc6bf74	0.0060653035
1	0x3bf2c82c	0.0074091163
2	0x3c8657ef	0.016399352
3	0xbc2ab273	-0.010418522
4	0xbd801983	-0.06254866
5	0xb9e18d58	-0.00043020654
6	0x3c4c09d3	0.012453514
7	0x3c5f3d12	0.0136254
8	0xbd164906	-0.036690734
9	0xbccb8f6b	-0.02484866
10	0x3cfa8104	0.030579098
11	0x3d4a1d6b	0.04934446
12	0x3b58933f	0.003304675
13	0xbc48aebd	-0.012248692
14	0xbb7a38df	-0.003818087
15	0xbc760f5e	-0.015018312
16	0x3d1a893c	0.037728533
17	0x3d3d0eca	0.046156682
18	0xbad5478d	-0.0016271934
19	0x3baf1d15	0.005344043
20	0xbc647e38	-0.0139461085
21	0xbb78c18c	-0.003795716
22	0x3c400a53	0.0117212115
23	0xbc349f06	-0.011024242
24	0xbc55cfe5	-0.013050054
25	0x3d2e9897	0.04262599
26	0x3c8bc572	0.017061923
27	0x3cfc7c96	0.030821126
28	0xbc207c28	-0.009795226
29	0x3d50317d	0.050828446

up_sample4.conv.weight f4 [128, 8, 3, 3]
0	0xbd9b94bd	-0.07596729
1	0xbbf431cf	-0.0074522267
2	0x3be05f57	0.006847303
3	0xbd8bc5db	-0.06824847
4	0xbdc6e16d	-0.09710965
5	0xbd3b2b30	-0.045695484
6	0xbd79b901	-0.06096745
7	0xbc1683c0	-0.009186685
8	0x3d9ef237	0.077610426
9	0x3d946494	0.07245746
10	0x3d93e8e8	0.07222158
11	0x3d03b66b	0.03215639
12	0x3c09ce9e	0.008411078
13	0xbdca4dcd	-0.098781206
14	0xbd85f7ba	-0.06541391
15	0x3c352e21	0.011058361
16	0x3c73d028	0.014881171
17	0x3d458640	0.048223734
18	0xbd3ecfd6	-0.046584927
19	0xbd9f6d3f	-0.07784509
20	0xbd421fb9	-0.047393534
21	0xbd7f9bcd	-0.062404443
22	0x3d694a77	0.05695578
23	0xbda0e7f8	-0.078567445
24	0x3d31edd6	0.04343971
25	0x3ca6a878	0.020344004
26	0xbd6cc3ce	-0.05780392
27	0x3dec42ed	0.115362026
28	0x3c71dcb5	0.014762093
29	0x3d114f5c	0.035476074
30	0xbde8e522	-0.113718286
31	0xbbd109bc	-0.0063793343
32	0x3cff8970	0.031193465
33	0xbd5491d0	-0.05189687
34	0x3df9277e	0.12165736
35	0x3dab7d8a	0.08373554
36	0x3dc026b2	0.093823805
37	0xbdb23823	-0.087021135
38	0xbdafd0d8	-0.08584756
39	0xbd96e794	-0.07368389
40	0xbdbb8f16	-0.09158151
41	0xbda3e53a	-0.08002706
42	0x3d4d3754	0.050101593
43	0xbcde14c7	-0.027109517
44	0xbcf2f38e	-0.029657152
45	0xbdbc9a43	-0.092091106
46	0x3d84cabd	0.06483982
47	0x3d85f194	0.06540218
48	0xbcf837cd	-0.030300045
49	0xbcee2d4d	-0.029074335
50	0xbd5eb755	-0.054374058
51	0xbd0a610d	-0.03378396
52	0xbcbf0212	-0.023316417
53	0xbd1c8c56	-0.038219772
54	0x39effe84	0.0004577526
55	0x3d654721	0.055976037
56	0xbd50bce4	-0.05096139
57	0xbd900d20	-0.070337534
58	0xbdaf0910	-0.085466504
59	0xbe02eb08	-0.1278497
60	0xbd5a9065	-0.05336036
61	0x3dc772b9	0.097386785
62	0x3d5c3997	0.05376586
63	0x3cbb91ad	0.022896612
64	0xbda29f8c	-0.079405874
65	0xbdbea28c	-0.09308347
66	0x3dd9740e	0.10617839
67	0x3cf82614	0.030291595
68	0x3d75b1ad	0.059983898
69	0x3df4aa55	0.11946551
70	0xbd9cece5	-0.076623715
71	0xba9eb6a0	-0.001210887
72	0xbd99d324	-0.07510975
73	0xbd5ed617	-0.05440339
74	0x3ddac3a9	0.106818505
75	0xbd4c79a5	-0.049920697
76	0x3d45173d	0.048117865
77	0x3d13cfba	0.036086775
78	0xbc22aa55	-0.009928306
79	0xbce5fb32	-0.02807388
80	0xbce9b977	-0.02853082
81	0xbd4aa602	-0.049474724
82	0x3d963967	0.073351674
83	0x3dd9887b	0.10621735
84	0xbd9374aa	-0.07199986
85	0xbd810b62	-0.06300999
86	0x3d68aac9	0.0568035
87	0x3d2d5065	0.042313
88	0xbd712103	-0.058869373
89	0x3d65ff8b	0.056151908
90	0x3df89085	0.1213694
91	0xbd87f864	-0.066391736
92	0xbd973844	-0.07383779
93	0xbd89af75	-0.06722919
94	0xbd0872e3	-0.03331269
95	0xbd85d0aa	-0.0653394
96	0x3d7d2d9d	0.06181108
97	0x3c23df3b	0.010001953
98	0xbdc5900e	-0.09646617
99	0xbd1f3cf9	-0.038876507
100	0xbc57236b	-0.013131003
101	0xbdbf62f5	-0.093450464
102	0xbd9895ef	-0.074504726
103	0xbe04eadb	-0.12980215
104	0xbe0ebafd	-0.13938518
105	0x3dab8096	0.08374135
106	0xbdd51e25	-0.1040614
107	0x3d8ab38d	0.06772528
108	0xbcfaf989	-0.030636566
109	0xbd97396c	-0.07383999
110	0xbdea5f20	-0.11443925
111	0xbda2983e	-0.07939194
112	0xbde894bb	-0.11356493
113	0xbd896025	-0.06707791
114	0xbdb7b4cf	-0.089700334
115	0x3d8cedce	0.06881295
116	0xbd67df4a	-0.05660943
117	0x3df993e7	0.12186413
118	0x3ca9ce58	0.020728275
119	0x3c3820c8	0.011238284
120	0xbd9d5015	-0.0768129
121	0x3d14a19f	0.036286946
122	0xbd50ea7a	-0.051004864
123	0xbdd0fd7d	-0.10204599
124	0x3bff50c2	0.0077916095
125	0xbc06345c	-0.008191194
126	0xbd8faa44	-0.070148975
127	0xbdb4510b	-0.0880452
128	0xbd655238	-0.055986613
129	0x3dc68d4d	0.0969492
130	0x3d5c709e	0.053818338
131	0xbd370e3b	-0.044691306
132	0x3d42d6b7	0.04756805
133	0x3da5c8fa	0.08094974
134	0x3c9f2224	0.01942546
135	0xbd20de13	-0.039274286
136	0xbceb0090	-0.028686792
137	0xbd9c8b7c	-0.07643792
138	0xbd30334b	-0.043017667
139	0xbd5f3884	-0.054497257
140	0x3d0dd488	0.034626514
141	0x3d5ecf74	0.05439706
142	0x3d3da109	0.046296153
143	0x3d9affd8	0.075683296
144	0x3cd4c874	0.02597449
145	0xbc9fa350	-0.019487053
146	0x3c76da28	0.015066661
147	0xbb956fdd	-0.0045604543
148	0x3cc5c0d4	0.0241398
149	0x3d7a2d93	0.06107862
150	0xbe175bac	-0.14781064
151	0xbd7cfaa6	-0.061762474
152	0x3d8586f3	0.0651988
153	0x3d46f3ee	0.048572473
154	0xbe052b8b	-0.13004892
155	0xbdd346a5	-0.10316209
156	0xbc12500a	-0.008930216
157	0xbdda5f7b	-0.10662743
158	0xbe0bf564	-0.13667828
159	0x3d9c0b68	0.07619363
160	0xbe0803fc	-0.1328277
161	0xbdea05d1	-0.11426891
162	0xbdfec3f8	-0.12439722
163	0x3da14f46	0.07876448
164	0xbc39bbf6	-0.011336317
165	0x3c8cc91b	0.017185738
166	0x3db5cf98	0.08877486
167	0xbdacc58f	-0.08436119
168	0x3db62906	0.08894543
169	0xbdf29df6	-0.11846535
170	0x3da5594f	0.08073675
171	0x3df7b4bf	0.120950215
172	0xbd339b6f	-0.043849405
173	0x3c890ecf	0.016730694
174	0xbe00b475	-0.12568839
175	0x3d562303	0.052279484
176	0xbb2dae9b	-0.0026501778
177	0x3c7ef383	0.015560987
178	0x3da5a696	0.08088414
179	0x3d0cac5c	0.034344062
180	0xbdba7043	-0.091034435
181	0x3d677d02	0.0565157
182	0x3da179bb	0.07884546
183	0xbc89ed2e	-0.016836729
184	0xbccf77cc	-0.025325678
185	0xbe0273bb	-0.1273946
186	0x3ce15ab1	0.027509065
187	0xbdb482c0	-0.08814001
188	0x3d43ed6f	0.047833856
189	0xbc9729f0	-0.018452615
190	0x3d267bc6	0.040645383
191	0x3d9cd626	0.07658033
192	0x3d455a24	0.048181668
193	0x3d2f089a	0.042732812
194	0xbddad12f	-0.1068443
195	0x3d820247	0.063480906
196	0xbde9865a	-0.11402579
197	0xbd88ef6a	-0.066862896
198	0x3d83696c	0.06416592
199	0x3cfc1980	0.030773878
200	0xbc75a4aa	-0.014992872
201	0x3d7216e8	0.059103876
202	0x3d443b15	0.047907908
203	0xbdfaa9c2	-0.1223941
204	0xbdf08778	-0.117445886
205	0x3cb9dc55	0.02268807
206	0xbd7d0190	-0.06176907
207	0xbc107eb6	-0.008819273
208	0xbde5ef48	-0.1122728
209	0xbd88b250	-0.066746354
210	0x3b22c590	0.0024836995
211	0xbd803cf1	-0.06261624
212	0x3d5c7a57	0.05382761
213	0xbd32926a	-0.043596663
214	0x3d8f8984	0.07008651
215	0x3dafd78b	0.085860334
216	0x3d49f92e	0.049309902
217	0x3de96063	0.113953374
218	0x3cb0f7dd	0.021602565
219	0xbd8437ae	-0.064559326
220	0xbe005460	-0.12532187
221	0x3d9c3e83	0.07629111
222	0x3c0140c9	0.007888981
223	0x3d60800c	0.054809615
224	0xbe06cf06	-0.1316491
225	0x3d78ff0b	0.060790103
226	0xbd9bc71e	-0.07606338
227	0x3d1cd230	0.038286388
228	0xbdbf55dc	-0.09342548
229	0x3dd47270	0.1037339
230	0xbcd5fc10	-0.02612117
231	0x3ca33f49	0.019927638
232	0x3d09efe0	0.03367603
233	0xba8457ea	-0.0010097001
234	0xbd04653e	-0.032323115
235	0x3d2bdc95	0.04195841
236	0xbdbc6ee1	-0.09200836
237	0xbce345df	-0.027743278
238	0x3d889afe	0.066701874
239	0x3d9fb133	0.0779747
240	0xbe054f20	-0.13018465
241	0x3d916a57	0.07100361
242	0xbd7caa29	-0.061685715
243	0x3d2c834b	0.0421174
244	0xbddd1147	-0.10794311
245	0x3d4e0351	0.05029613
246	0xbdcfadd2	-0.101405755
247	0x3da05696	0.07829015
248	0x3afc6fb7	0.0019259368
249	0xbddafb14	-0.106924206
250	0xbdd80494	-0.10547748
251	0x3c885089	0.016639965
252	0xbe2416ef	-0.16024373
253	0xbd780dc3	-0.06056
254	0x3da754bf	0.08170461
255	0x3cd755f1	0.026286097

up_sample4.conv.bias f4 [128]
0	0xbd8093c1	-0.06278182
1	0x3d2ae615	0.04172333
2	0xbbde178f	-0.0067777107
3	0xbd9727a2	-0.07380606
4	0x3d7b1c57	0.061306324
5	0xbce81ce2	-0.028334085
6	0xbbd2dca6	-0.0064349947
7	0xbdad34be	-0.084573254
8	0xbcb464d1	-0.02202073
9	0x3d5f764e	0.054556184
10	0x3d0f0b7c	0.03492306
11	0xbd501694	-0.050802782
12	0xbd338fa9	-0.043838177
13	0xbdb80a2f	-0.08986317
14	0x3d2ed422	0.042682774
15	0xbcf26be0	-0.029592454
16	0xbd3076d3	-0.04308207
17	0x3d06f66e	0.032949857
18	0xbd9d587a	-0.07682891
19	0x3d08f144	0.033433214
20	0xbd7e7b93	-0.06212957
21	0x3d787139	0.060654853
22	0x3d80b623	0.0628474
23	0xbd1ca54c	-0.038243577
24	0x3d34a1b0	0.04409951
25	0x3cd95c46	0.026533257
26	0xbcd083f2	-0.025453541
27	0xbdec3d68	-0.1153515
28	0xbd1fb709	-0.038992915
29	0x3cfb94db	0.030710628
30	0x3d0f40c1	0.034973864
31	0xbc5bce88	-0.01341594
32	0x3d40a555	0.047032673
33	0x3c919a75	0.017773846
34	0xbb870d7c	-0.0041214805
35	0x3d33df9a	0.043914415
36	0xbd606311	-0.054781977
37	0xbdafc3a0	-0.085822344
38	0xbcb00cc4	-0.021490462
39	0x3d55addc	0.05216776
40	0x3d936a9e	0.0719807
41	0x3c61a8e3	0.013773176
42	0xbc093b16	-0.008375904
43	0xbd3da179	-0.04629657
44	0x3c2524dc	0.010079589
45	0xbd4477f5	-0.047965962
46	0x3d2ab0c7	0.041672494
47	0xbbbb6494	-0.005718777
48	0x3d32844b	0.043583196
49	0x3ce1b16e	0.027550425
50	0xbc13daef	-0.009024366
51	0xbda23f4f	-0.079222314
52	0xbd570794	-0.05249746
53	0x3c88a6a1	0.016681017
54	0xbd518001	-0.051147465
55	0x3d5503b4	0.052005485
56	0xbc25361a	-0.0100837
57	0xbc15e824	-0.009149585
58	0xbe007d39	-0.12547769
59	0xbd101a60	-0.035181403
60	0x3d208b8b	0.03919558
61	0xbd3b2731	-0.045691673
62	0xbdd599cf	-0.10429727
63	0xbdaf8b35	-0.085714735
64	0xbda25bcd	-0.07927666
65	0xbd29b241	-0.04142976
66	0xbda439a9	-0.0801881
67	0x3cb958e5	0.022625396
68	0x3d548ecd	0.051893998
69	0xbdaab007	-0.08334356
70	0xbd3ea925	-0.046548028
71	0x3adfb038	0.0017066067
72	0x3df2aefc	0.11849782
73	0xbd8010ac	-0.0625318
74	0x3cfd6819	0.030933427
75	0x3c863592	0.016382966
76	0xba659cac	-0.00087590027
77	0xbdcde9ec	-0.10054383
78	0xbd7c4c52	-0.061596222
79	0xbd92a084	-0.07159522
80	0xbd835bab	-0.06413969
81	0xbd5c61df	-0.053804275
82	0xbce07106	-0.027397644
83	0xbdd8a8ce	-0.10579072
84	0xbdc2c8ab	-0.09510931
85	0xbd1cc7e6	-0.038276576
86	0x3d04a718	0.032385916
87	0xbd8fc9bb	-0.07020899
88	0xbda048b8	-0.0782637
89	0xbce79295	-0.028268138
90	0xbda763d1	-0.08173335
91	0x3cc56b91	0.024099143
92	0xbd117078	-0.03550765
93	0xbd0b1c51	-0.03396255
94	0xbd865f13	-0.06561103
95	0xbce7db48	-0.028302804
96	0xba4d015a	-0.0007820331
97	0x3d018fa5	0.03163113
98	0x3d8b040e	0.06787883
99	0xbd7b3ab2	-0.061335273
100	0xbd825d89	-0.06365497
101	0x3d96d190	0.073641896
102	0xbcdd6d08	-0.02702953
103	0xbd7e7b65	-0.062129397
104	0x3dce445c	0.10071632
105	0xbd992fcb	-0.07479819
106	0xbd6056ad	-0.05477016
107	0x3d25cb74	0.04047723
108	0xbc2e88cc	-0.010652732
109	0xbd557c36	-0.05212041
110	0xbd0d3bbe	-0.034480803
111	0x3d0aacad	0.033856083
112	0xbbb41bc9	-0.0054964763
113	0x3c541fbd	0.01294702
114	0xbca09927	-0.019604279
115	0x3d19fb84	0.03759338
116	0xbd926767	-0.07148629
117	0xbd7f1e05	-0.06228449
118	0x3da2acfa	0.07943149
119	0x3c9508e5	0.018192718
120	0x3c8f47fd	0.017490381
121	0x3c16ba89	0.009199747
122	0xbd5af8fb	-0.053460103
123	0xbc561149	-0.013065645
124	0x3c0fa7b2	0.008768009
125	0x3bd51483	0.0065026893
126	0x3cd5e761	0.026111307
127	0xbd3c480e	-0.045967154

up_sample2.conv.weight f4 [32, 8, 3, 3]
0	0xbcd5b3cc	-0.02608671
1	0x3d84a3d1	0.06476558
2	0xbdb87a62	-0.09007718
3	0x3cdf56fc	0.027263157
4	0xbd8249b2	-0.063617125
5	0x3cd77cc4	0.02630461
6	0xbd40c39c	-0.047061548
7	0x3d1f73ee	0.03892892
8	0xb9a52d00	-0.0003150478
9	0x3d85d887	0.0653544
10	0x3cec064c	0.028811596
11	0xbd9f425b	-0.07776328
12	0x3dd243dd	0.1026685
13	0x3da39999	0.07988281
14	0xbdac64cc	-0.08417663
15	0xbc4d8700	-0.012544394
16	0x3d4498e6	0.047997378
17	0x3d2552ba	0.040362097
18	0xbdefb7af	-0.11704957
19	0xbdc2893e	-0.09498833
20	0xbd940fe4	-0.072295934
21	0xbd64e1be	-0.055879347
22	0x3dacd619	0.084392734
23	0xbd121948	-0.03566864
24	0x3c451b08	0.0120303705
25	0x3c2b6d28	0.010463037
26	0xbd809ded	-0.06280122
27	0x3c0f5858	0.00874909
28	0xbd254732	-0.0403511
29	0xbd0a5692	-0.033773966
30	0x3ddceceb	0.10787376
31	0xbd80deb5	-0.06292478
32	0xbd3c59dc	-0.045984134
33	0x3cccf76c	0.025020324
34	0xbdcfd242	-0.10147525
35	0x3d1da45a	0.038486816
36	0xbd2faba8	-0.042888314
37	0xbdc03e84	-0.09386924
38	0xbd67cad7	-0.056589928
39	0xbd1e573c	-0.038657412
40	0x3bc03a60	0.005866334
41	0xbd9913ea	-0.074745014
42	0x3d276ba2	0.04087413
43	0xbb3b5f00	-0.002859056
44	0xb9a99800	-0.0003234744
45	0xbd3d49f4	-0.046213105
46	0xbdb7b694	-0.08970371
47	0xbbbe2360	-0.005802557
48	0x3da7159b	0.08158418
49	0x3da0170b	0.07816895
50	0x3d792d4a	0.060834207
51	0xbcb392b8	-0.021920547
52	0x3b69b760	0.0035662279
53	0xbda91271	-0.082554705
54	0xbdd1fdf8	-0.10253519
55	0xbc8db1b0	-0.017296642
56	0xbd8acc3c	-0.06777236
57	0x3dbeae05	0.09310535
58	0x3db3b08f	0.0877391
59	0x3dc7984b	0.097458445
60	0xbd8884bb	-0.06665941
61	0xbc19c468	-0.009385206
62	0x3db13795	0.086531796
63	0x3d0df0ea	0.03465358
64	0x3d8602e7	0.06543522
65	0x3d316bea	0.043315805
66	0x3d750246	0.05981662
67	0xbcb32390	-0.021867543
68	0xbcc6e5c0	-0.024279475
69	0x3dcacdfd	0.099025704
70	0x3dd1c469	0.102425404
71	0xbdd9d7aa	-0.10636838
72	0xbc25ce70	-0.010120019
73	0x3c8f2bec	0.017476998
74	0xbdd356cd	-0.1031929
75	0xbd683d06	-0.05669882
76	0xbda49705	-0.08036617
77	0x3cae37ec	0.0212669
78	0xbc3d9e88	-0.011573441
79	0xbdd67c96	-0.10472982
80	0xbd211dd2	-0.03933508
81	0x3d970d49	0.07375581
82	0x3dadc2d7	0.084844284
83	0x3cbbe924	0.022938319
84	0xbd8ef994	-0.06981197
85	0x3dc3e803	0.09565737
86	0x3d867899	0.06565971
87	0xbd50375c	-0.050834045
88	0xbdb68021	-0.089111574
89	0xbd828182	-0.06372358
90	0xbde7043b	-0.11280104
91	0xbde55633	-0.11198082
92	0x3d90a53b	0.07062765
93	0x3da9a66b	0.08283695
94	0xbd997b1e	-0.07494186
95	0x3cfd09f4	0.030888535
96	0xbc15c348	-0.009140797
97	0x3c88f35c	0.016717605
98	0xbdc27b89	-0.09496219
99	0xbdb8976e	-0.09013258
100	0xbcc68a7c	-0.024235956
101	0x3db8cfb7	0.090239935
102	0xbca5e904	-0.020252712
103	0xbc7341a8	-0.014847197
104	0xbd37ff4c	-0.044921204
105	0x3dd58d73	0.1042737
106	0xbd682285	-0.056673545
107	0xbd9d3bc4	-0.07677415
108	0x3d8893b7	0.06668799
109	0xbcef6d60	-0.029226959
110	0xbdafd981	-0.085864075
111	0xbdd4067b	-0.103527986
112	0xbdaac7c4	-0.083388835
113	0xbdb641d2	-0.08899273
114	0xbde93355	-0.11386744
115	0xbd0322de	-0.032015674
116	0xbdb53a56	-0.08849017
117	0xbd5c1d1a	-0.05373869
118	0xbdc1ee1f	-0.09469246
119	0x3d2e1c0a	0.04250721
120	0x3be77aa0	0.0070641786
121	0xbcec754c	-0.028864525
122	0xbd082836	-0.033241473
123	0x3c6cf988	0.01446379
124	0x3d5bcf36	0.05366441
125	0xbde5d723	-0.11222675
126	0x3d5d1a46	0.053980134
127	0xbdb46ea0	-0.088101625
128	0xbc8ca968	-0.017170623
129	0xbdc5d564	-0.09659842
130	0x3ddda7f9	0.10823054
131	0xbdb4606a	-0.08807452
132	0xbd72cca1	-0.05927718
133	0x3dc177cf	0.0944668
134	0xbc0cdbe8	-0.008597352
135	0xbd9c4e86	-0.07632165
136	0xbcf83a6c	-0.030301295
137	0x3d3a6866	0.04550972
138	0xbdd0a43f	-0.101875775
139	0xbdbdf6c5	-0.09275583
140	0x3dcd386b	0.100205265
141	0x3dc4d9fd	0.096118905
142	0x3bd00230	0.006347917
143	0x3d792b26	0.060832165
144	0xbaa749c0	-0.0012763068
145	0xbd7b8b20	-0.061411977
146	0x3d95fe13	0.073238514
147	0xbd6ba3c8	-0.05752924
148	0x3d5720ea	0.052521624
149	0x3c68bb18	0.014204763
150	0xbd174574	-0.03693147
151	0xbda2b960	-0.07945514
152	0x3d409e32	0.047025867
153	0xbc9f6454	-0.01945702
154	0xbd5a82c2	-0.053347357
155	0x3de5138f	0.11185371
156	0xbda55ee0	-0.080747366
157	0x3de0b20f	0.10971462
158	0x3cf79f34	0.030227281
159	0x3d2ba8b2	0.041908927
160	0x3db2d5b9	0.087321706
161	0xbdc5c345	-0.09656385
162	0xbdd0e658	-0.102001846
163	0xbd24e7a6	-0.04025998
164	0x3d956187	0.072939925
165	0x3af3dfc0	0.0018606111
166	0x3d6f2f7a	0.058394887
167	0x3da15cc5	0.078790225
168	0xbd399d0c	-0.045315787
169	0x3d6b5092	0.057449885
170	0x3d5d0be6	0.053966425
171	0x3dc769db	0.09736987
172	0xbd2cc650	-0.042181313
173	0x3d31efaa	0.043441452
174	0x3cfadccc	0.030622862
175	0x3dc86e3f	0.09786653
176	0x3ddc24d3	0.10749211
177	0xbdca598e	-0.098803625
178	0x3db42aed	0.0879725
179	0xbdca293a	-0.098711446
180	0x3dd51273	0.104039095
181	0xbb8f7a50	-0.0043785945
182	0x3d9d4b6d	0.07680402
183	0xbdd137ce	-0.10215722
184	0xbd9908b1	-0.07472361
185	0xbd70d2a3	-0.05879463
186	0xbd991c4a	-0.07476099
187	0x3de2781b	0.110580646
188	0x3cb078ec	0.021542035
189	0xbdc9a412	-0.09845747
190	0xbd427c94	-0.04748209
191	0x3c8d46fc	0.017245762
192	0xbd8d8890	-0.06910813
193	0xbd214576	-0.039372884
194	0x3dc8b489	0.09800059
195	0x3d930877	0.07179349
196	0x3d123ba6	0.035701416
197	0x3d974793	0.073866986
198	0x3de05b77	0.109549455
199	0x3b3115c0	0.002702102
200	0x3d10ddfa	0.035367943
201	0x3dd1db85	0.10246948
202	0x3d646b9e	0.055766694
203	0x3ba69fc0	0.0050849617
204	0xbd2c6df4	-0.042097047
205	0xbd0a0bc8	-0.03370264
206	0xbb984e40	-0.004648
207	0xbcfeb5e8	-0.031092599
208	0x3d87329b	0.06601449
209	0xbd39011a	-0.045167066
210	0xbdb82c3d	-0.08992813
211	0xba866b80	-0.0010255426
212	0xbcf97d20	-0.030455172
213	0xbb8d9a10	-0.004321344
214	0xbc9ed9ec	-0.019391023
215	0x3d17894a	0.036996163
216	0xbd2a9788	-0.041648418
217	0xbc8ceff8	-0.01720427
218	0xbd5f5858	-0.05452761
219	0xbdaba986	-0.083819434
220	0x3de75fe1	0.11297584
221	0xbd6fef77	-0.05857798
222	0xbd9e0b62	-0.07717015
223	0x3d768e6a	0.06019441
224	0xbd8cc06c	-0.06872639
225	0x3dc81a6b	0.09770664
226	0xbdc06834	-0.09394875
227	0xbcedd304	-0.029031284
228	0x3dd1b467	0.10239487
229	0xbd0e5f18	-0.034758657
230	0xbdd4a217	-0.10382479
231	0xbd9f3c6f	-0.07775199
232	0x3d84137b	0.06449028
233	0x3dcf93cd	0.10135613
234	0x3d3177e2	0.04332722
235	0xbd23550a	-0.03987602
236	0xbd2079be	-0.039178602
237	0xbd521468	-0.051288992
238	0x3de42875	0.11140529
239	0xbdb2c094	-0.087281376
240	0xbdde87c9	-0.10865743
241	0x3dcfdc33	0.101494215
242	0xbd58dc52	-0.05294449
243	0x3d359dd2	0.044339962
244	0x3c10c6a8	0.008836426
245	0xbce47cbc	-0.02789151
246	0x3da4b105	0.08041576
247	0xbd08c41a	-0.033390142
248	0xbc820df8	-0.015875801
249	0x3db8cbd3	0.090232514
250	0x3dc071f3	0.09396734
251	0x3d97e635	0.074169554
252	0x3d95e3ed	0.07318864
253	0x3dc7877f	0.09742641
254	0xbdcff703	-0.101545356
255	0xba6bec80	-0.000899978

up_sample2.conv.bias f4 [32]
0	0xbc886cdc	-0.01665347
1	0xbd004254	-0.031313255
2	0x3d96d469	0.07364733
3	0x3dded1c5	0.10879854
4	0x3d7f6382	0.062350757
5	0x3db0ea4f	0.08638441
6	0x3d3d6db6	0.046247207
7	0xbbd5b170	-0.0065213963
8	0xbdb5d47e	-0.0887842
9	0xbdafb670	-0.08579719
10	0xba786680	-0.0009475723
11	0xbd80cc2d	-0.062889434
12	0xbd02c230	-0.031923473
13	0x3b94c360	0.004539892
14	0x3c055778	0.00813853
15	0xbd71b005	-0.059005756
16	0x3d9ebd99	0.07751007
17	0xbdd6ff2c	-0.10497889
18	0xbdd25ca8	-0.10271579
19	0x3dec39ad	0.11534438
20	0xbd385c98	-0.04501018
21	0xbd257efe	-0.040404312
22	0xbddec2d8	-0.10877007
23	0x3d257c2e	0.04040163
24	0xbde0814d	-0.10962162
25	0xbb990fe0	-0.004671082
26	0xbdcb5d6c	-0.09929928
27	0xbde22421	-0.11042047
28	0xbddc4cbf	-0.10756826
29	0x3d9b95ad	0.07596908
30	0xbc9f7850	-0.01946655
31	0x3dd5d9f7	0.10441964

conv6.weight f4 [8, 30, 3, 3]
0	0xbd80b75c	-0.06284973
1	0xbddc7168	-0.10763818
2	0x3c4994c3	0.012303534
3	0xbd4dbdb3	-0.05022974
4	0xbdb82985	-0.08992294
5	0x3c65875b	0.014009322
6	0x3d2173fc	0.039417252
7	0x3cd563cd	0.026048565
8	0x3cf7f976	0.03027032
9	0xbb3b7315	-0.002860253
10	0x3bfb6e73	0.0076730787
11	0xbc9ceb9e	-0.01915532
12	0xbcf80033	-0.030273532
13	0x3c951d30	0.018202394
14	0x3d07e383	0.033175956
15	0xbc9e6db4	-0.01933942
16	0x3bf67948	0.007521782
17	0x3c9807b3	0.018558359
18	0xbb332b37	-0.002733899
19	0xbcf2a699	-0.029620456
20	0xbceb0ec0	-0.028693557
21	0x3c09a118	0.008400224
22	0xbcbe0c54	-0.023199238
23	0xbb80e04b	-0.003932988
24	0x3c1e3ed4	0.009658534
25	0x3d537961	0.051629428
26	0x3c5b466e	0.013383491
27	0x3c88982e	0.016674127
28	0x3d31e1fe	0.043428414
29	0x3cb3afa4	0.021934338
30	0x3c0550a9	0.008136907
31	0xbe3e16cd	-0.18563385
32	0xbc5739e9	-0.013136365
33	0x3ca452ea	0.020059068
34	0xbca50ed3	-0.02014867
35	0x3c3f518e	0.011677159
36	0x3d025b78	0.031825513
37	0xbba0f879	-0.0049124327
38	0x3d085c6c	0.033291265
39	0x3d1d057b	0.038335305
40	0xbdb937d9	-0.09043855
41	0x3d2a43cd	0.041568566
42	0x3cd4f56f	0.025995938
43	0xbdd184fa	-0.102304414
44	0x39820f84	0.00024807092
45	0xbc15ec5b	-0.00915059
46	0x3cac97bf	0.021068452
47	0x3d1aa20e	0.037752204
48	0x3d304218	0.043031782
49	0x3d128d0d	0.035779048
50	0xbd326dde	-0.04356181
51	0x3c7a5942	0.01528007
52	0x3d4307a3	0.047614705
53	0xbd0eb48f	-0.034840163
54	0x3c6bff8b	0.014404188
55	0xbcd18c02	-0.025579456
56	0x3d252a67	0.04032364
57	0xbcfdd021	-0.030983033
58	0x3cf801aa	0.030274231
59	0x3c90cf64	0.017677017
60	0x3c06b367	0.008221484
61	0xbd17a0aa	-0.037018456
62	0xbc42dc4d	-0.011893344
63	0xbd40e1fe	-0.047090523
64	0xbc811cf5	-0.015760878
65	0xbcbec494	-0.023287095
66	0xbbca7a6b	-0.006179144
67	0x3d1e0137	0.038575377
68	0xbd4b6835	-0.049659926
69	0x3d6c166a	0.057638563
70	0x3de24faa	0.11050351
71	0xbcd45066	-0.025917243
72	0xbb0b45d1	-0.002125133
73	0x3c99b1b9	0.018761503
74	0xbc363843	-0.011121812
75	0xbc1ced50	-0.009578064
76	0x3a0e751c	0.0005434321
77	0xbd69ad38	-0.05704996
78	0xbd8d2ddb	-0.06893512
79	0xbd830933	-0.06398239
80	0xbdaf014a	-0.08545168
81	0xbabcbf92	-0.0014400354
82	0xbc2748f4	-0.0102102645
83	0x3c8cd3d9	0.01719086
84	0xbd562119	-0.052277658
85	0xb9380048	-0.00017547712
86	0x3d462440	0.048374414
87	0x3be5f062	0.0070171813
88	0xbaddf9fc	-0.0016935463
89	0x3cafce35	0.021460632
90	0xb9e6f0a2	-0.00044048304
91	0xbd36224c	-0.0444663
92	0xbd2c4f0b	-0.04206757
93	0xba05cbf9	-0.00051039417
94	0xbc0b7c3c	-0.0085135065
95	0x3c4c9954	0.012487728
96	0x3d2d945f	0.042377826
97	0x3ca7eb3e	0.020497914
98	0xbc364343	-0.011124435
99	0x3cd744db	0.02627795
100	0x3c8f6a63	0.017506784
101	0x3adb9dbc	0.0016755383
102	0x3d0d66bb	0.0345218
103	0x3cc2a1a2	0.023758713
104	0xbd82da5e	-0.063893065
105	0x3aea6f3a	0.0017885931
106	0xbd299350	-0.041400254
107	0xbd14bba6	-0.036311768
108	0xbc85b4b3	-0.016321516
109	0x3d49a7a6	0.049232148
110	0xbcbace78	-0.02280353
111	0xbcc88fb0	-0.024482578
112	0x3d36a735	0.044593055
113	0x3da5bd18	0.080927074
114	0xbc3a32f8	-0.011364691
115	0xbd124425	-0.03570952
116	0x3c8b4310	0.016999751
117	0xbd487097	-0.0489355
118	0x3cb299f8	0.021801934
119	0x3d03908d	0.032120276
120	0xbd522df0	-0.05131334
121	0x3e40b01d	0.18817182
122	0x3de06c68	0.10958177
123	0xbad353a2	-0.0016122947
124	0x3c81be73	0.015837884
125	0x3c3431dc	0.0109982155
126	0xbc4893c8	-0.012242265
127	0x3c8aa398	0.01692371
128	0x3d6f5965	0.058434863
129	0x3b184d30	0.0023239367
130	0x3a172edb	0.0005767175
131	0x3d6fcd99	0.058545683
132	0x3c09e2bc	0.008415874
133	0xbcb89de6	-0.02253623
134	0xbc21443c	-0.0098429285
135	0xbc87eb3a	-0.016591657
136	0xbce9a781	-0.028522255
137	0xbd0a502a	-0.033767857
138	0xbc7d4aab	-0.015459697
139	0x3d40024b	0.046877187
140	0xbcfa6b39	-0.030568706
141	0xbd0a165a	-0.033712722
142	0x3c267ec6	0.010162061
143	0x3cb18a22	0.021672312
144	0x3c058fb9	0.008151942
145	0xbd3617b4	-0.0444562
146	0xbd303bda	-0.04302583
147	0x3d4dce8e	0.050245814
148	0x3d507545	0.050893087
149	0x3cacbef8	0.021087155
150	0x3d475037	0.048660483
151	0x3c7443a2	0.014908703
152	0xbc5f4df8	-0.013629429
153	0x3c024594	0.007951159
154	0x3ce1ae10	0.02754882
155	0x3cc0202e	0.023452844
156	0xbc24d2bb	-0.010060008
157	0xbd77667c	-0.06040047
158	0xbcc6ce40	-0.02426827
159	0x3c50d3e0	0.012745827
160	0xbd63c034	-0.05560322
161	0xbc8c960a	-0.017161388
162	0x3bb34947	0.005471382
163	0xbcdaf691	-0.0267289
164	0xbaee1dd1	-0.0018166845
165	0x3c159472	0.00912963
166	0xbd21d7ec	-0.03951256
167	0xbbea13de	-0.0071434816
168	0xbc9f6db2	-0.019461486
169	0xbd3c5726	-0.04598155
170	0xbc5ac4b8	-0.0133525655
171	0x3c771f9e	0.015083222
172	0x3b09da23	0.002103456
173	0x3b3e1370	0.0029003285
174	0xbc4f2eed	-0.012645465
175	0xbb929b13	-0.0044740527
176	0x3d1424f5	0.036168057
177	0xbc53246b	-0.012887101
178	0x3d041cfc	0.032254204
179	0x3cbf4ff3	0.023353552
180	0x3c1f54dd	0.009724823
181	0x3d90ddd1	0.07073558
182	0xbc352648	-0.01105649
183	0x3cc93732	0.024562452
184	0x3c6805c5	0.014161532
185	0x3d73ad5b	0.059491497
186	0xbd1fcf32	-0.039015956
187	0xbcc1b5f0	-0.023646325
188	0x3d2d04fb	0.042241078
189	0xbd2de6ad	-0.042456318
190	0x3c5c11bd	0.0134319635
191	0xbbb21f6a	-0.0054358738
192	0x3b30caca	0.002697634
193	0x3d46007e	0.048340313
194	0xbc611062	-0.013736816
195	0x3d066292	0.032808848
196	0x3d4e77d3	0.050407242
197	0xbcc03ef2	-0.023467515
198	0xbae7f932	-0.0017698167
199	0xba1ecf06	-0.00060580706
200	0xbbec67b9	-0.007214513
201	0x3d308a78	0.043100804
202	0xbc7c241d	-0.015389469
203	0xbd8bed75	-0.06832401
204	0x3cda72ed	0.026666129
205	0xbd067bd2	-0.032832928
206	0x3ca8e676	0.020617705
207	0x3b119a2e	0.0022217142
208	0xbd8dba85	-0.069203414
209	0xbc1e0a64	-0.009646032
210	0xbcd8a86a	-0.026447494
211	0xbcccb290	-0.024987489
212	0x3d00e1cf	0.031465348
213	0xbd7165e9	-0.05893508
214	0x3cf4d03b	0.029884448
215	0x3cc94994	0.024571218
216	0x3a8c78dc	0.0010717171
217	0xbdda2b6c	-0.10652813
218	0xbd1261f9	-0.035737965
219	0x3e0ba87d	0.13638492
220	0xbd3c884b	-0.046028417
221	0xbd81efba	-0.06344552
222	0x3d1e3dc6	0.03863313
223	0x3d9156b0	0.070966125
224	0x3cc7d786	0.024394762
225	0xbcab37a8	-0.020900562
226	0xbd96b5ad	-0.07358871
227	0xbcf19d6a	-0.029494006
228	0xbb1f5ff0	-0.0024318658
229	0xbd66ae62	-0.05631865
230	0xbd29f5ba	-0.04149411
231	0xb9bb10d7	-0.00035679966
232	0x3cb6c727	0.02231176
233	0x3d08eb84	0.03342773
234	0x3c90eaca	0.017690081
235	0xbb574bff	-0.0032851694
236	0xbbed1882	-0.0072355876
237	0x3d868ca7	0.06569796
238	0x3e0a3cd3	0.13499765
239	0xbd721213	-0.05909927
240	0xbd03fe5e	-0.032225005
241	0xbc2763a7	-0.01021663
242	0xbced8928	-0.028996065
243	0xbb8decde	-0.0043312153
244	0x3ceb1b1f	0.028699456
245	0x3d2414f1	0.040059034
246	0xbc8223fc	-0.0158863
247	0x3cda9c5b	0.026685884
248	0x3d0b0c39	0.033947203
249	0xbc36b4e7	-0.011151529
250	0xbba66a39	-0.0050785807
251	0xbc80da29	-0.015729027
252	0x3ca2bc7f	0.019865273
253	0x3c4dc718	0.012559675
254	0xbca1f2ea	-0.01976915
255	0x3d9fa477	0.07795041

conv6.bias f4 [8]
0	0xbbab599f	-0.0052291895
1	0xbc53578e	-0.012899293
2	0xbc31f2bb	-0.010861094
3	0x3c14649e	0.009057192
4	0xbc94cc1a	-0.01816373
5	0xbc567e48	-0.013091631
6	0xbbf118e5	-0.007357704
7	0x3c520c20	0.012820274
